outputs/dqn_co2.pt (torch, 75016 bytes, 6 tensors)

net.0.weight f4 [128, 10]
-0.0023675263 0.16963837 -0.26026973 -0.23272435 -0.1217965 0.08479881 -0.0062654912 0.25073364
-0.028063327 0.08367783 -0.095568165 -0.06770581 -0.30765402 -0.20943199 -0.17120248 -0.029590527
0.08371439 0.15216106 -0.2143838 -0.16216822 0.12830779 0.32324666 -0.047190655 0.2926131
0.024299322 0.17370185 0.40261775 -0.22329788 0.04086788 -0.08161091 0.04124124 0.4667174
0.07806953 0.19831663 -0.31666178 -0.93228376 -0.5842839 0.18600668 0.2160685 0.9109223
0.05241184 0.07666676 -0.06470965 -0.096730225 -0.17052585 -0.4701592 0.40664378 0.11863929
-0.28875825 -0.065400004 0.36522332 0.4207773 0.20038377 0.20596588 0.35998064 0.04306534
0.2615444 -0.075550884 0.10796521 -0.027270675 -0.016145233 -0.061308373 -0.18952303 -0.10981292
-0.1386539 -0.048536293 0.046837598 -0.3109944 0.026939856 0.3662166 -0.39806888 -0.106404655
0.09611312 0.13012199 0.22324951 0.34260696 0.090980776 -0.3102014 0.15253696 -0.3712886
0.06639539 0.4196183 0.5478876 0.25198904 -0.12572841 0.16048266 -0.062056366 -0.266981
-0.09380044 -0.7688267 0.078155756 0.19120052 0.18873186 0.19097649 -0.4464344 -0.09230366
0.23576254 -0.02625964 -0.4647768 -0.51583946 -0.18635115 -0.4020484 -0.23032527 -0.27861795
-0.80594903 -0.73150885 -0.5984841 -0.8073674 -0.18291527 0.84431314 0.018681757 0.16041945
-0.12991937 0.23009108 0.14980836 -0.5288304 -0.3408295 -0.08159303 0.02262761 0.49831676
0.12409672 0.018942088 -0.15429662 0.1496355 -0.30334112 -0.1874303 -0.07916126 -0.15403877
-0.110627025 -0.25918713 0.35146904 -0.21457398 -0.25606963 0.2027282 -0.24881117 -0.09518209
0.058416862 -0.4854036 0.14480355 0.9246928 0.30357188 0.11367322 -0.0047263657 -0.5495171
-0.20291972 0.47139585 0.7140235 0.101900965 0.20672655 -0.44455725 -0.2959424 -0.26689884
-0.064142615 0.1734212 0.17096573 -0.30498013 0.19725719 -0.24745122 -0.06685381 -0.1282217
-0.38021567 -0.23843496 -0.27660888 -0.6017373 -0.07525466 0.24663597 -0.010912517 -0.026001437
-0.5840353 -0.1312355 0.10708255 -0.22383018 0.04073457 -0.19374776 -0.526919 0.3071275
0.013948583 -0.16736287 0.28873515 -0.6386629 -0.23549439 0.012205336 0.20722614 -0.11213323
0.0025748862 0.109275594 -0.13206957 -0.28888968 -0.6187977 -0.13188638 0.25107792 0.21637091
-0.22306019 0.014103711 -0.22291973 -0.17407838 -0.18426766 0.10806927 -0.18844429 -0.006899208
0.16369185 0.15294039 -0.5076078 -0.16522601 -0.53271204 0.43484288 -0.10173762 0.52376324
0.21177933 0.07321493 0.4405225 0.037735593 0.11294115 -0.84401804 0.064654335 -0.13458808
-0.2693483 0.13315493 0.3130414 -1.3350945 -0.06663551 0.3455344 0.13681136 -0.034363434
-0.30832797 0.1994718 -0.21018064 -0.09357364 0.065954894 -0.09789057 -0.168189 0.14509667
-0.050731182 0.021029253 0.06540798 -0.3745726 -0.0048648007 -0.37574503 -0.019031195 0.63218033
0.073743336 0.24701634 0.19375885 0.00694207 0.091885984 -0.57392514 -0.26746255 -0.14674377
-0.47366956 -0.94290054 0.5870362 -0.13151225 0.027680751 0.18552063 -0.68342215 0.023968112
00000000: 8028 1bbb aeb5 2d3e 1342 85be 4b4f 6ebe
00000010: 7270 f9bd 00ab ad3d c04e cdbb 2960 803e
00000020: 10e5 e5bc 485f ab3d 3eb9 c3bd 58a9 8abd
00000030: d484 9dbe 5775 56be b44f 2fbe d567 f2bc
00000040: 7372 ab3d 1cd0 1b3e 6d87 5bbe 6d0f 26be
00000050: 1e63 033e 9680 a53e fd4a 41bd 62d1 953e
00000060: 5f0f c73c e6de 313e ea23 ce3e 33a8 64be
00000070: 1465 273d 9f23 a7bd 93ec 283d 95f5 ee3e
00000080: ebe2 9f3d 8413 4b3e 7e21 a2be 26aa 6ebf
00000090: a193 15bf 8978 3e3e 1041 5d3e 3432 693f
000000a0: ccad 563d 7603 9d3d 7e86 84bd 7f1a c6bd
000000b0: 549e 2ebe b5b8 f0be 9d33 d03e 28f9 f23d
000000c0: 1fd8 93be 70f0 85bd 8dfe ba3e 1f70 d73e
000000d0: 6731 4d3e b8e8 523e 624f b83e 4865 303d
000000e0: 26e9 853e 6cba 9abd dd1c dd3d c066 dfbc
000000f0: 0243 84bc 7d1e 7bbd 5312 42be 99e5 e0bd
00000100: 4afb 0dbe fecd 46bd c8d8 3f3d a83a 9fbe
00000110: f9b0 dc3c be80 bb3e afcf cbbe afea d9bd
00000120: f5d6 c43d b33e 053e 859b 643e 2e6a af3e
00000130: 2154 ba3d b8d2 9ebe a632 1c3e 8a19 bebe
00000140: 4efa 873d 36d8 d63e 5d42 0c3f b504 813e
00000150: f3be 00be 9155 243e d12e 7ebd bcb1 88be
00000160: 721a c0bd d4d1 44bf 2010 a03d 12ca 433e
00000170: ed42 413e 578f 433e 0d93 e4be b409 bdbd
00000180: bc6b 713e 751e d7bc 3af7 edbe 0e0e 04bf
00000190: d6d2 3ebe 4ad9 cdbe 63da 6bbe 03a7 8ebe
000001a0: ad52 4ebf 2a44 3bbf 4136 19bf a1af 4ebf
000001b0: 244e 3bbe e824 583f 7c0a 993c ff44 243e
000001c0: 9509 05be ff9c 6b3e 5d67 193e 6e61 07bf
000001d0: 3481 aebe 3f1a a7bd 8a5d b93c 6023 ff3e
000001e0: 6c26 fe3d 702c 9b3c efff 1dbe 0c3a 193e
000001f0: 874f 9bbe bbed 3fbe 4c1f a2bd 57bc 1dbe
00000200: 6c90 e2bd 2db4 84be c0f3 b33e 48b9 5bbe
00000210: 8f1b 83be fb97 4f3e 5bc8 7ebe d4ee c2bd
00000220: 8546 6f3d d286 f8be 6247 143e abb8 6c3f
00000230: c66d 9b3e 81cd e83d a1df 9abb 27ad 0cbf
00000240: 30ca 4fbe cc5a f13e 3eca 363f 74b1 d03d
00000250: 20b0 533e 029d e3be c385 97be f7a6 88be
00000260: 345d 83bd 5495 313e a411 2f3e 5b26 9cbe
00000270: cafd 493e da63 7dbe a6ea 88bd 8d4c 03be
00000280: a1ab c2be 4b28 74be ae9f 8dbe 750b 1abf
00000290: 1d1f 9abd 248e 7c3e 6aca 32bc f700 d5bc
000002a0: 5683 15bf 9962 06be 194e db3d bd33 65be
000002b0: 4bd9 263d d065 46be 2ae4 06bf d13f 9d3e
000002c0: 9988 643c 2c61 2bbe 18d5 933e 697f 23bf
000002d0: 7125 71be e4f8 473c 1733 543e 1ba6 e5bd
000002e0: 6cbf 283b e2cb df3d 3f3d 07be 59e9 93be
000002f0: 8769 1ebf 390d 07be 498d 803e 5690 5d3e
00000300: e469 64be 4013 673c 1245 64be 9a41 32be
00000310: a9b0 3cbe 6c53 dd3d 8af7 40be c012 e2bb
00000320: d69e 273e 689c 1c3e 96f2 01bf 0231 29be
00000330: d15f 08bf baa3 de3e d05b d0bd 5915 063f
00000340: aedc 583e b6f1 953d 2a8c e13e a390 1a3d
00000350: b14d e73d 9111 58bf 7e69 843d 75d1 09be
00000360: 05e8 89be c459 083e f646 a03e 60e4 aabf
00000370: 3378 88bd e3e9 b03e 4718 0c3e acc0 0cbd
00000380: 2add 9dbe 5642 4c3e 9839 57be 89a3 bfbd
00000390: 5c13 873d da7a c8bd bd39 2cbe 3994 143e
000003a0: 80cb 4fbd 8a45 ac3c 9ef4 853d fbc7 bfbe
000003b0: e868 9fbb a761 c0be 4fe7 9bbc 92d6 213f
000003c0: bf06 973d daf1 7c3e b868 463e 4e7a e33b
000003d0: b82e bc3d c2ec 12bf daf0 88be 0044 16be
000003e0: d184 f2be ee61 71bf 0148 163f 26ab 06be
000003f0: bec2 e23c 1ff9 3d3e c1f4 2ebf c658 c43c

net.0.bias f4 [128]
-0.23622327 -0.07810907 0.3944949 0.06537541 0.31327766 0.2585238 -0.13448681 0.5614325
-0.33378825 -0.5398754 0.3399786 0.5872305 -0.09915857 0.06537463 -0.44393605 -0.2640798
0.49919623 -0.2892671 0.45603746 -0.25320774 -0.09451536 0.12740773 0.48600113 0.46590543
0.47742644 0.37055427 -0.3917425 -0.22583333 -0.2829014 -0.33120927 0.6289249 -0.24337472
-0.037507717 -0.42195538 0.39766687 0.5009658 -0.42216766 -0.31898892 0.50471896 0.3393422
-0.060055554 -0.3144467 0.5599414 -0.24578306 -0.29549268 0.46834117 -0.45574042 0.31009358
-0.39508644 -0.53217435 -0.058971696 -0.27976993 0.5922541 -0.19564436 0.18082206 -0.39808345
0.40603003 -0.28683162 0.4624787 0.33835143 -0.19906324 0.35589617 -0.64546746 0.45895302
-0.65112424 -0.417635 0.5722931 -0.2952153 0.29730386 0.56720024 0.20145926 0.62090594
0.62342304 0.42983875 -0.15783146 0.62028104 0.5086495 -0.23568322 -0.28487456 -0.03351474
0.50881636 0.62644327 -0.19795513 0.19754718 0.39018077 0.5384469 0.34986696 0.04174558
-0.30833304 0.55392283 -0.5153741 0.51895446 -0.3329708 -0.2047157 -0.0056193313 0.12413667
-0.15749316 0.36987364 -0.06692611 0.37184247 0.6768732 -0.31605467 0.6494566 -0.1575752
0.50784963 0.5623445 -0.13788775 -0.008721343 -0.5391391 0.5936538 0.06302708 0.24006926
0.50786877 0.63538265 0.4482244 0.5163051 0.3301174 -0.13112666 0.57646126 -0.36437404
0.026031503 -0.2187059 -0.2889917 0.43609637 0.09242528 0.32503524 0.53548914 -0.28830442
00000000: 83e4 71be a6f7 9fbd 3cfb c93e 8be3 853d
00000010: ee65 a03e 3b5d 843e e9b6 09be 0aba 0f3f
00000020: 4be6 aabe 4635 0abf ad11 ae3e bd54 163f
00000030: a613 cbbd 22e3 853d 964b e3be 7835 87be
00000040: a696 ff3e d11a 94be be7d e93e 72a4 81be
00000050: 4591 c1bd 2c77 023e 24d5 f83e 288b ee3e
00000060: 3d71 f43e 4ab9 bd3e 7992 c8be da40 67be
00000070: 74d8 90be 4394 a9be 3901 213f 3937 79be
00000080: b1a1 19bd 890a d8be fe9a cb3e 4b3f 003f
00000090: 5c26 d8be 8452 a3be 4335 013f 43be ad3e
000000a0: d0fc 75bd 28ff a0be 5258 0f3f 8eae 7bbe
000000b0: d14a 97be 6aca ef3e cf56 e9be 96c4 9e3e
000000c0: c548 cabe 943c 08bf 4e8c 71bd 013e 8fbe
000000d0: f79d 173f ff56 48be 6b29 393e 98d1 cbbe
000000e0: 2be3 cf3e 98db 92be 02ca ec3e 663c ad3e
000000f0: 3cd7 4bbe 0638 b63e 5b3d 25bf e4fb ea3e
00000100: 14b0 26bf 41d4 d5be cd81 123f 7626 97be
00000110: 3638 983e 0934 113f 564b 4e3e b1f3 1e3f
00000120: a798 1f3f d313 dc3e 929e 21be bdca 1e3f
00000130: db36 023f f156 71be 14db 91be c146 09bd
00000140: ca41 023f 965e 203f c0b4 4abe cf49 4a3e
00000150: c6c5 c73e a8d7 093f c321 b33e 6afd 2a3d
00000160: d4dd 9dbe e3cd 0d3f 8fef 03bf 33da 043f
00000170: 267b aabe fea0 51be 5e22 b8bb 5e3b fe3d
00000180: e345 21be 1460 bd3e 8e10 89bd 2362 be3e
00000190: 9047 2d3f ebd1 a1be ca42 263f 655b 21be
000001a0: 6f02 023f cff5 0f3f 7232 0dbe f7e3 0ebc
000001b0: 0505 0abf b2f9 173f 5714 813d b7d4 753e
000001c0: b003 023f 70a8 223f ab7d e53e 922c 043f
000001d0: 2605 a93e 1146 06be f792 133f 3c8f babe
000001e0: 0540 d53c 70f4 5fbe b8f6 93be 0648 df3e
000001f0: 7749 bd3d 056b a63e d115 093f a39c 93be

net.2.weight f4 [128, 128]
0.031376168 -0.048680905 0.018314056 -0.020178929 0.061900713 0.07729406 0.07676738 0.0039760843
0.05212199 -0.08831219 -0.051848095 0.015797049 0.00049293786 -0.069391295 -0.039121706 -0.041282143
-0.08757182 0.008429661 0.060253806 0.035873592 -0.041996215 -0.08116394 -0.071309686 0.0016395301
0.060803525 -0.035794854 -0.048096076 -0.047151335 -0.0076516643 -0.083938405 -0.07799781 0.08700866
-0.042153824 -0.015942045 -0.023648545 -0.07764971 -0.015582256 0.027057149 -0.035890758 -0.0037670955
-0.00042280555 -0.08799103 0.064233266 0.0713977 0.060263656 -0.029026587 0.046188496 -0.082813025
-0.021866098 -0.017976798 -0.031214315 0.037123106 -0.040274844 -0.010244548 -0.025522433 -0.08300399
-0.014596507 -0.07490702 0.051539607 0.047240295 0.0828015 -0.029681053 0.0044947416 0.017314449
0.088230886 0.08101795 -0.04574446 -0.07520988 -0.07966338 -0.04256427 0.074315734 0.029685192
0.08528178 0.06551529 0.0012814254 -0.054780923 0.08631127 0.07090259 0.038267113 -0.048283324
0.06963051 0.0080447495 0.05844537 0.03689035 0.046934955 -0.07755865 -0.049009673 0.05301281
-0.01841446 -0.07689607 0.0803803 -0.0019114465 0.07130145 -0.06908582 0.030431561 -0.033293124
-0.037195172 -0.018435135 -0.032716587 0.048433296 -0.016793706 0.06701761 0.02016873 -0.013657346
-0.051053055 -0.08093482 -0.02578485 -0.0818504 -0.016375765 0.0014446452 -0.0056960806 -0.04341785
0.061347134 0.04977853 -0.021776862 -0.034922753 0.05556888 0.07690001 -0.080931775 -0.01909712
-0.008202627 -0.032001965 0.07545794 -0.013055965 0.07493993 0.0004369542 -0.009587593 -0.051557068
-0.02938969 0.0037563974 0.27314854 0.09076358 0.37251073 0.1466743 0.11094467 0.40553936
0.13367988 0.571664 -0.51970077 0.6007836 -0.048491295 0.19096535 0.025175193 0.021258377
0.48830754 -0.040131237 0.3142829 0.022093102 0.11197071 0.15803936 0.22931202 0.31797007
0.17592005 -0.098254845 -0.077804565 -0.08645711 0.04788039 0.06249824 0.35673782 -0.00010531628
-0.029381264 0.09735617 0.14041838 0.2144566 0.46333855 -0.0053300224 0.2316807 0.180532
0.12379643 -0.22364755 0.5912499 0.06726066 -0.0064163953 0.2563419 0.33150014 0.39218214
0.09011248 -0.6861006 -0.042947438 0.051592436 0.39424405 -0.17380896 0.42088848 0.055629943
0.260331 0.06586183 0.40523732 0.34757683 -0.07036716 0.2503332 0.19702406 0.30217057
0.23112029 0.1283482 0.34703723 0.0059902333 0.2241766 0.35703343 0.36648583 0.35500917
0.3009477 0.25796053 0.20596376 0.34141675 0.5093808 0.07019376 -0.45362937 0.028556451
0.33613262 0.32742706 -0.06866008 0.33801463 0.23421688 0.19949666 0.14358217 0.30944118
-0.41167986 0.381285 0.104490355 0.3574527 0.023327766 -0.045734115 -0.3467841 0.0800756
0.07073 0.19670102 -0.02611888 0.160984 0.6388646 0.08766954 0.7188395 -0.010363375
0.31753623 0.24848062 -0.07839061 -0.046255797 0.6138931 0.39139208 0.05637769 0.08250792
0.37353486 0.31231257 0.15832354 0.46090302 0.58796793 -0.05821804 0.38978428 0.63119686
0.020331992 -0.04439614 0.035006505 0.29740146 0.112375356 0.17066741 0.31861427 0.12261628
00000000: 4c84 003d a165 47bd 5c07 963c 484e a5bc
00000010: 9a8b 7d3d 594c 9e3d 3738 9d3d d049 823b
00000020: de7d 553d 05dd b4bd ab5e 54bd d068 813c
00000030: 8038 013a 061d 8ebd 153e 20bd 7717 29bd
00000040: db58 b3bd 901c 0a3c b2cc 763d 30f0 123d
00000050: 3904 2cbd 4839 a6bd d00a 92bd 80e5 d63a
00000060: 1e0d 793d a09d 12bd 6400 45bd c221 41bd
00000070: d0ba fabb e6e7 abbd 51bd 9fbd 9931 b23d
00000080: 7da9 2cbd e498 82bc 98ba c1bc d006 9fbd
00000090: b84c 7fbc f4a6 dd3c 3002 13bd 60e1 76bb
000000a0: 00ac ddb9 a434 b4bd bb8c 833d f538 923d
000000b0: 06d7 763d 2ac9 edbc 2630 3d3d e099 a9bd
000000c0: 8820 b3bc 1444 93bc 2ab5 ffbc 660e 183d
000000d0: 3cf7 24bd c0d8 27bc 6c14 d1bc fffd a9bd
000000e0: 3026 6fbc da68 99bd 321b 533d 0a7f 413d
000000f0: d593 a93d ae25 f3bc a048 933b 08d7 8d3c
00000100: 65b2 b43d bdec a53d 8b5e 3bbd a307 9abd
00000110: 8e26 a3bd df57 2ebd d932 983d 5c2e f33c
00000120: 37a8 ae3d e12c 863d 80f5 a73a f661 60bd
00000130: f7c3 b03d 6135 913d fabd 1c3d bcc4 45bd
00000140: 719a 8e3d 20ce 033c 6a64 6f3d 561a 173d
00000150: de3e 403d 12d7 9ebd 5ebe 48bd f623 593d
00000160: ecd9 96bc b07b 9dbd 6d9e a43d 8089 faba
00000170: 7f06 923d de7c 8dbd 9c4b f93c 5f5e 08bd
00000180: f759 18bd 4805 97bc d401 06bd fe61 463d
00000190: f492 89bc 8740 893d e438 a53c 10c3 5fbc
000001a0: 021d 51bd 28c1 a5bd c03a d3bc 2fa1 a7bd
000001b0: 7826 86bc 405a bd3a 30a6 babb ead6 31bd
000001c0: 2247 7b3d 92e4 4b3d 6465 b2bc 290b 0fbd
000001d0: 329c 633d c17d 9d3d 8fbf a5bd 9071 9cbc
000001e0: 5064 06bc 7e14 03bd b189 9a3d b0e8 55bc
000001f0: 1b7a 993d 0017 e539 4815 1dbc 812d 53bd
00000200: a6c2 f0bc e42d 763b 20da 8b3e 41e2 b93d
00000210: bab9 be3e ca31 163e f636 e33d dba2 cf3e
00000220: 61e3 083e 9258 123f 1c0b 05bf f4cc 193f
00000230: cf9e 46bd 6c8c 433e 353c ce3c 0c26 ae3c
00000240: 7203 fa3e a760 24bd b0e9 a03e 98fc b43c
00000250: e650 e53d 12d5 213e c5d0 6a3e f9cc a23e
00000260: 6324 343e d639 c9bd 0058 9fbd 6d10 b1bd
00000270: 3a1e 443d 28fe 7f3d 57a6 b63e 3fdd dcb8
00000280: fab0 f0bc ac62 c73d d6c9 0f3e 839a 5b3e
00000290: b63a ed3e 78a7 aebb b53d 6d3e 61dd 383e
000002a0: fc88 fd3d dd03 65be 275c 173f f5bf 893d
000002b0: a040 d2bb 3f3f 833e 63ba a93e 19cc c83e
000002c0: e48c b83d 4aa4 2fbf a7e9 2fbd 9752 533d
000002d0: 5bda c93e fafa 31be b27e d73e 39dc 633d
000002e0: 1b4a 853e 91e2 863d 447b cf3e 97f5 b13e
000002f0: a81c 90bd ac2b 803e adc0 493e 1ab6 9a3e
00000300: ccaa 6c3e b66d 033e ddae b13e b849 c43b
00000310: 8d8e 653e 16cd b63e 08a4 bb3e c3c3 b53e
00000320: d115 9a3e 6713 843e 2ae8 523e 2dce ae3e
00000330: c866 023f bfc1 8f3d 1c42 e8be 38ef e93c
00000340: 9319 ac3e 85a4 a73e a89d 8cbd 4110 ad3e
00000350: 8dd6 6f3e da48 4c3e 3407 133e 136f 9e3e
00000360: b4c7 d2be ca37 c33e 0aff d53d 0a04 b73e
00000370: df19 bf3c b253 3bbd b08d b1be adfe a33d
00000380: e4da 903d fe6b 493e 43f7 d5bc fdd8 243e
00000390: a18c 233f 168c b33d de05 383f 25cb 29bc
000003a0: 1c94 a23e b471 7e3e 428b a0bd b876 3dbd
000003b0: 1928 1d3f 8b64 c83e 4bec 663d eaf9 a83d
000003c0: f63f bf3e 6fe7 9f3e 911f 223e 7bfb eb3e
000003d0: 1185 163f 0a76 6ebd ce91 c73e 1e96 213f
000003e0: 478f a63c bad8 35bd fb62 0f3d 0145 983e
000003f0: 0d25 e63d 70c3 2e3e 6921 a33e 3f1e fb3d

net.2.bias f4 [128]
-0.07714068 0.59494954 -0.045608133 -0.052041553 0.5241226 0.03436774 0.050512377 0.57365745
0.07859368 0.541949 0.041478258 0.5134747 0.607476 0.5260077 -0.08735247 0.54556227
-0.022444598 0.5351269 0.023387188 0.026063137 -0.072892174 -0.06560554 0.06129614 0.49095926
0.015897775 0.017078344 0.49509317 -0.081383586 0.59638596 0.6004464 -0.018902011 0.4965552
0.55482256 -0.08269052 0.06418138 0.5479608 -0.03963565 -0.0048917457 0.028186535 0.37333998
-0.019529358 0.49713668 -0.02363866 0.35982 0.39240107 0.03106512 0.06957783 -0.011299472
0.53624463 -0.09004733 0.029470151 0.032152828 -0.09419304 0.48357743 0.47282913 0.45174196
-0.046455666 -0.1104015 0.0022042855 0.55453044 -0.07738429 0.41559815 0.49436566 0.051194854
0.5497155 -0.053054996 -0.0095827645 -0.17742757 0.57931405 -0.012606206 0.40744668 -0.027019659
0.47540665 0.55418 -0.031555533 -0.0066279345 0.43895277 -0.1382733 0.48911563 0.016232986
0.37418634 0.55614173 0.5313106 0.45218897 0.5948844 0.044516493 -0.040630024 -0.060624454
0.47858208 0.4676482 0.20453368 -0.05371999 0.05872503 -0.0053234478 0.50845003 0.544072
0.54442286 -0.036952272 -0.10304969 0.4310569 0.06182669 0.5773985 -0.03914472 0.5849767
0.016050622 -0.088841975 -0.013620354 0.08718139 0.02286287 0.55089223 0.3774966 0.49907583
0.0017395136 -0.08394293 -0.10180662 0.23400767 0.46192682 -0.02634535 -0.2435055 -0.19814429
-0.053759184 -0.06315372 -0.023185888 0.07452761 -0.03748006 -0.093402855 -0.0757952 -0.072057664
00000000: effb 9dbd 9d4e 183f 98cf 3abd 8629 55bd
00000010: e62c 063f 30c5 0c3d 11e6 4e3d 37db 123f
00000020: b9f5 a03d 2bbd 0a3f 1be5 293d 1473 033f
00000030: 8c83 1b3f 71a8 063f dae5 b2bd f8a9 0b3f
00000040: bcdd b7bc 14fe 083f 7d96 bf3c 5c82 d53c
00000050: 7e48 95bd 335c 86bd a911 7b3d 035f fb3e
00000060: 0d3c 823c e2e7 8b3c da7c fd3e 70ac a6bd
00000070: c0ac 183f dbb6 193f 64d8 9abc 7c3c fe3e
00000080: da08 0e3f a659 a9bd 8771 833d 2947 0c3f
00000090: fe58 22bd f04a a0bb 73e7 e63c 6b26 bf3e
000000a0: 08fc 9fbc b388 fe3e dda5 c1bc 543a b83e
000000b0: cbe8 c83e 477c fe3c d27e 8e3d 6c21 39bc
000000c0: 5447 093f bc6a b8bd 636b f13c afb2 033d
000000d0: 48e8 c0bd 7697 f73e a916 f23e b94a e73e
000000e0: 4c48 3ebd 2e1a e2bd c675 103b b5f5 0d3f
000000f0: a87b 9ebd 48c9 d43e 7f1d fd3e b2b1 513d
00000100: 28ba 0c3f 3250 59bd 0701 1dbc 93af 35be
00000110: ed4d 143f 438a 4ebc da9c d03e 5558 ddbc
00000120: 8068 f33e bede 0d3f 6040 01bd 252f d9bb
00000130: 6bbe e03e 8497 0dbe 5d6d fa3e 0afb 843c
00000140: 5a95 bf3e 4e5f 0e3f f903 083f 5085 e73e
00000150: 584a 183f ed56 363d ab6b 26bd 5951 78bd
00000160: b608 f53e 966f ef3e 4771 513e 7e09 5cbd
00000170: a889 703d 5170 aebb c829 023f 4d48 0b3f
00000180: 4c5f 0b3f 445b 17bd b70b d3bd 7db3 dc3e
00000190: fc3d 7d3d 63d0 133f 3756 20bd 08c1 153f
000001a0: 987c 833c c8f2 b5bd e827 5fbc 288c b23d
000001b0: ea4a bb3c 4607 0d3f 3c47 c13e de86 ff3e
000001c0: 6400 e43a 45ea abbd fd7f d0bd b59f 6f3e
000001d0: ac81 ec3e 34d2 d7bc 8159 79be 56e6 4abe
000001e0: 9732 5cbd bd56 81bd 55f0 bdbc eea1 983d
000001f0: b184 19bd ff49 bfbd 843a 9bbd f892 93bd

net.4.weight f4 [2, 128]
-0.08656247 -0.39501888 -0.03630608 -0.0036241277 -0.38071626 0.009418413 0.061680906 -0.3789439
-0.069763 -0.39743268 -0.022837961 -0.30563003 -0.39730412 -0.36403656 -0.054166857 -0.40462863
0.0064484775 -0.385265 0.07291956 -0.014519215 -0.041278843 -0.03534248 0.059927277 -0.29487142
0.04060244 0.060715474 -0.37337193 0.07585434 -0.49385563 -0.41106617 0.03873208 -0.38561696
-0.37524247 -0.06729552 0.14051175 -0.2979248 0.05954758 -0.038807165 -0.008617 -0.20649382
-0.029315788 -0.29187822 -0.04217515 -0.19987282 -0.21802595 -0.030542592 -0.048798263 0.0432044
-0.39705363 0.010535757 0.042772464 -0.035654314 -0.0028676027 -0.25790617 -0.26205122 -0.35510287
-0.015602393 -0.0131441355 0.026919317 -0.41091093 0.020547148 -0.24336617 -0.24762174 -0.05804157
-0.33439654 -0.0007049181 0.0146245975 0.5425579 -0.33826804 0.035219975 -0.29238784 0.0016017461
-0.29792148 -0.40119833 0.021616274 0.005354081 -0.3980995 -0.07736193 -0.2602138 0.053984255
-0.57599723 -0.31484845 -0.31809196 -0.33102235 -0.3784612 0.029566322 0.05389017 0.07598051
-0.39184904 -0.39856035 -0.41498315 -0.023704642 -0.038465265 -0.058814026 -0.43239862 -0.3769722
-0.329036 -0.0045679 0.032070518 -0.4059562 0.051159054 -0.3384198 0.081447564 -0.42263946
-0.051458925 -0.0011105376 0.036564194 -0.45258844 -0.045671225 -0.39700133 -0.17507604 -0.34631383
-0.05480195 -0.045407113 -0.006153975 -0.13100956 -0.25167853 0.025501443 0.46504867 0.527771
-0.009061923 0.06061847 -0.03807705 -0.08102059 -0.0006305553 0.56005746 0.00020242065 0.0012186723
0.07387935 -0.33178794 0.041328397 -0.0683062 -0.30653965 0.051923268 0.04084959 -0.40773585
-0.031918988 -0.32064962 0.002162296 -0.36169258 -0.31013805 -0.3864644 0.06455432 -0.2872716
-0.062087014 -0.40162995 0.039573092 0.04966641 0.015882336 0.077368565 -0.025155986 -0.354564
0.030221473 0.006290715 -0.32663402 0.006958768 -0.35449773 -0.26920563 0.032041475 -0.3198944
-0.3432965 -0.061545692 -0.9847388 -0.39277545 -0.066894725 -0.021615878 0.05285319 -0.34720892
0.0369888 -0.3692433 -0.10330259 -0.3419054 -0.35755008 0.0698464 0.05251693 0.067234285
-0.3728314 -0.08475023 -0.040111437 0.06058051 0.016899979 -0.36285126 -0.36237684 -0.31651402
0.06818972 -0.060784835 0.050964415 -0.24430488 -0.026613226 -0.3630506 -0.34976128 0.0317515
-0.4084345 0.004255694 0.07274078 -0.025845138 -0.34379372 0.04475577 -0.3751689 0.025071247
-0.33362898 -0.39402923 0.04915787 -0.0058535747 -0.3324572 0.93603474 -0.36915302 -0.034257043
-1.2179533 -0.40181836 -0.35886806 -0.3212297 -0.38293213 -0.024188625 -0.007269966 0.0011053006
-0.37226412 -0.3935857 -0.075799994 0.02697358 0.05716115 -0.0049765557 -0.23678274 -0.32357046
-0.32192275 -0.06574337 0.001410426 -0.27102202 -1.0717504 -0.40557754 -0.06177634 -0.24149139
-0.05339208 0.04486067 0.016444646 -0.391956 -0.028265094 -0.30297828 -0.31741688 -0.38509825
0.054168448 -0.057414133 0.021232516 -0.27334464 -0.33313724 -0.020950189 0.018222263 1.0001736
0.022404315 -0.036357295 0.030862277 0.015796436 0.015510256 -0.0673871 -0.0057683885 0.027344383
00000000: aa47 b1bd ea3f cabe afb5 14bd c682 6dbb
00000010: 3eed c2be b04f 1a3c 1ea5 7c3d ef04 c2be
00000020: e7df 8ebd 4c7c cbbe ad16 bbbc 8a7b 9cbe
00000030: 726b cbbe 0063 babe 11de 5dbd 7c2b cfbe
00000040: c04d d33b 7441 c5be da56 953d 00e2 6dbc
00000050: 0114 29bd 47c3 10bd 4e76 753d 63f9 96be
00000060: be4e 263d cab0 783d 9b2a bfbe 8559 9b3d
00000070: a5da fcbe 4477 d2be 88a5 1e3d 966f c5be
00000080: c81f c0be 3cd2 89bd 50e2 0f3e 9989 98be
00000090: 2ae8 733d 43f4 1ebd 512e 0dbc 1e73 53be
000000a0: aa27 f0bc 1071 95be dabf 2cbd 76ab 4cbe
000000b0: 3242 5fbe 7534 fabc b0e0 47bd 19f7 303d
000000c0: 9d4a cbbe 2b9e 2c3c 2e32 2f3d 420a 12bd
000000d0: 64ee 3bbb 470c 84be 942b 86be 0bd0 b5be
000000e0: 2ea1 7fbc 805a 57bc e685 dc3c eb62 d2be
000000f0: 7e52 a83c fb34 79be 8e90 7dbe ffbc 6dbd
00000100: 0636 abbe 41ca 38ba 029c 6f3c 13e5 0a3f
00000110: 7831 adbe d242 103d dcb3 95be aef1 d13a
00000120: 2a89 98be de69 cdbe 9d14 b13c 4971 af3b
00000130: b3d3 cbbe ee6f 9ebd be3a 85be 981e 5d3d
00000140: 8e74 13bf d133 a1be f3dc a2be c37b a9be
00000150: abc5 c1be 1235 f23c f0bb 5c3d ab9b 9b3d
00000160: 70a0 c8be 1a10 ccbe ac78 d4be 3d30 c2bc
00000170: c18d 1dbd fae6 70bd 5a63 ddbe 8002 c1be
00000180: 6877 a8be 53ae 95bb 605c 033d 7ed9 cfbe
00000190: 288c 513d 5c45 adbe fbcd a63d 3364 d8be
000001a0: 98c6 52bd 758f 91ba 56c4 153d acb9 e7be
000001b0: c011 3bbd c243 cbbe 2247 33be 0c50 b1be
000001c0: 0278 60bd cffc 39bd 49a7 c9bb 5f27 06be
000001d0: 02dc 80be 67e8 d03c dc1a ee3e 001c 073f
000001e0: 7678 14bc 134b 783d aef6 1bbd 20ee a5bd
000001f0: da4b 25ba ed5f 0f3f e140 5439 dbbb 9f3a
00000200: 0f4e 973d 1ce0 a9be f747 293d 1fe4 8bbd
00000210: c4f2 9cbe 7ead 543d e651 273d c1c2 d0be
00000220: 7cbd 02bd 302c a4be 4fb5 0d3b c52f b9be
00000230: 6aca 9ebe a9de c5be 0e35 843d 4315 93be
00000240: f44e 7ebd 71a2 cdbe 6517 223d 016f 4b3d
00000250: ac1b 823c 6973 9e3d ed13 cebc 6a89 b5be
00000260: 0693 f73c 5822 ce3b 933c a7be 6006 e43b
00000270: ba80 b5be 52d5 89be ec3d 033d 33c9 a3be
00000280: 8fc4 afbe 5617 7cbd d817 7cbf dd19 c9be
00000290: 1a00 89bd c813 b1bc 967c 583d 5ec5 b1be
000002a0: 9181 173d 750d bdbe 4f90 d3bd 390e afbe
000002b0: ce10 b7be a10b 8f3d fe1b 573d 21b2 893d
000002c0: c2e3 bebe 8791 adbd e44b 24bd 4523 783d
000002d0: d371 8a3c a4c7 b9be 7589 b9be 200e a2be
000002e0: 0da7 8b3d 85f9 78bd 10c0 503d 0f2b 7abe
000002f0: fb03 dabc c5e1 b9be e913 b3be dc0d 023d
00000300: 541e d1be 5973 8b3b 1ef9 943d 2fb9 d3bc
00000310: bb05 b0be d451 373d 2316 c0be 3762 cd3c
00000320: 6bd1 aabe 33be c9be c359 493d 58cf bfbb
00000330: d537 aabe f99f 6f3f a001 bdbe 1d51 0cbd
00000340: e5e5 9bbf 23bb cdbe 8ebd b7be 3878 a4be
00000350: ae0f c4be 3927 c6bc e538 eebb bcdf 903a
00000360: 6799 bebe 1184 c9be 073d 9bbd b2f7 dc3c
00000370: cf21 6a3d 6012 a3bb 2d77 72be 07ab a5be
00000380: 0fd3 a4be 76a4 86bd 0bde b83a 66c3 8abe
00000390: 1e2f 89bf dca7 cfbe 3009 7dbd 8549 77be
000003a0: a7b1 5abd d2bf 373d ecb6 863c 75ae c8be
000003b0: 338c e7bc f81f 9bbe 7784 a2be 992b c5be
000003c0: bcdf 5d3d 152b 6bbd d0ef ad3c d4f3 8bbe
000003d0: f790 aabe bb9f abbc db46 953c b005 803f
000003e0: 4189 b73c 63eb 14bd e3d2 fc3c 8767 813c
000003f0: bb1e 7e3c 3f02 8abd c004 bdbb 5401 e03c

net.4.bias f4 [2]
-0.4867118 -0.42979217
00000000: 4a32 f9be b80d dcbe
